…
    "section": "Model Loading and Testing",
    "text": "Model Loading and Testing\n\n#Loading a pretrain model\nmodel = TransformerModel.from_pretrained(\n  model_name_or_path = params['model_name_or_path'],\n  checkpoint_file = params['checkpoint_file'],\n  #data_name_or_path = params['data_preprocessed']\n)\n\n\n## Move model to GPU if available and trigger evaluation mode\nif torch.cuda.is_available():\n  model.cuda()\nmodel.eval()\n\nGeneratorHubInterface(\n  (models): ModuleList(\n    (0): BARTModel(\n      (encoder): TransformerEncoderBase(\n        (dropout_module): FairseqDropout()\n        (embed_tokens): Embedding(50348, 512, padding_idx=1)\n        (embed_positions): SinusoidalPositionalEmbedding()\n        (layers): ModuleList(\n          (0): TransformerEncoderLayerBase(\n            (self_attn): MultiheadAttention(\n              (dropout_module): FairseqDropout()\n              (k_proj): Linear(in_features=512, out_features=512, bias=True)\n              (v_proj): Linear(in_features=512, out_features=512, bias=True)\n              (q_proj): Linear(in_features=512, out_features=512, bias=True)\n              (out_proj): Linear(in_features=512, out_features=512, bias=True)\n            )\n            (self_attn_layer_norm): LayerNorm((512,), eps=1e-05, elementwise_affine=True)\n            (dropout_module): FairseqDropout()\n            (activation_dropout_module): FairseqDropout()\n            (fc1): Linear(in_features=512, out_features=2048, bias=True)\n            (fc2): Linear(in_features=2048, out_features=512, bias=True)\n            (final_layer_norm): LayerNorm((512,), eps=1e-05, elementwise_affine=True)\n          )\n          (1): TransformerEncoderLayerBase(\n            (self_attn): MultiheadAttention(\n              (dropout_module): FairseqDropout()\n              (k_proj): Linear(in_features=512, out_features=512, bias=True)\n              (v_proj): Linear(in_features=512, out_features=512, bias=True)\n              (q_proj): Linear(in_features=512, out_features=512, bias=True)\n              (out_proj): Linear(in_features=512, out_features=512, bias=True)\n            )\n            (self_attn_layer_norm): LayerNorm((512,), eps=1e-05, elementwise_affine=True)\n            (dropout_module): FairseqDropout()\n            (activation_dropout_module): FairseqDropout()\n            (fc1): Linear(in_features=512, out_features=2048, bias=True)\n            (fc2): Linear(in_features=2048, out_features=512, bias=True)\n            (final_layer_norm): LayerNorm((512,), eps=1e-05, elementwise_affine=True)\n          )\n          (2): TransformerEncoderLayerBase(\n            (self_attn): MultiheadAttention(\n              (dropout_module): FairseqDropout()\n              (k_proj): Linear(in_features=512, out_features=512, bias=True)\n              (v_proj): Linear(in_features=512, out_features=512, bias=True)\n              (q_proj): Linear(in_features=512, out_features=512, bias=True)\n              (out_proj): Linear(in_features=512, out_features=512, bias=True)\n            )\n            (self_attn_layer_norm): LayerNorm((512,), eps=1e-05, elementwise_affine=True)\n            (dropout_module): FairseqDropout()\n            (activation_dropout_module): FairseqDropout()\n            (fc1): Linear(in_features=512, out_features=2048, bias=True)\n            (fc2): Linear(in_features=2048, out_features=512, bias=True)\n            (final_layer_norm): LayerNorm((512,), eps=1e-05, elementwise_affine=True)\n          )\n          (3): TransformerEncoderLayerBase(\n            (self_attn): MultiheadAttention(\n              (dropout_module): FairseqDropout()\n              (k_proj): Linear(in_features=512, out_features=512, bias=True)\n              (v_proj): Linear(in_features=512, out_features=512, bias=True)\n              (q_proj): Linear(in_features=512, out_features=512, bias=True)\n              (out_proj): Linear(in_features=512, out_features=512, bias=True)\n            )\n            (self_attn_layer_norm): LayerNorm((512,), eps=1e-05, elementwise_affine=True)\n            (dropout_module): FairseqDropout()\n            (activation_dropout_module): FairseqDropout()\n            (fc1): Linear(in_features=512, out_features=2048, bias=True)\n            (fc2): Linear(in_features=2048, out_features=512, bias=True)\n            (final_layer_norm): LayerNorm((512,), eps=1e-05, elementwise_affine=True)\n          )\n          (4): TransformerEncoderLayerBase(\n            (self_attn): MultiheadAttention(\n              (dropout_module): FairseqDropout()\n              (k_proj): Linear(in_features=512, out_features=512, bias=True)\n              (v_proj): Linear(in_features=512, out_features=512, bias=True)\n              (q_proj): Linear(in_features=512, out_features=512, bias=True)\n              (out_proj): Linear(in_features=512, out_features=512, bias=True)\n            )\n            (self_attn_layer_norm): LayerNorm((512,), eps=1e-05, elementwise_affine=True)\n            (dropout_module): FairseqDropout()\n            (activation_dropout_module): FairseqDropout()\n            (fc1): Linear(in_features=512, out_features=2048, bias=True)\n            (fc2): Linear(in_features=2048, out_features=512, bias=True)\n            (final_layer_norm): LayerNorm((512,), eps=1e-05, elementwise_affine=True)\n          )\n          (5): TransformerEncoderLayerBase(\n            (self_attn): MultiheadAttention(\n              (dropout_module): FairseqDropout()\n              (k_proj): Linear(in_features=512, out_features=512, bias=True)\n              (v_proj): Linear(in_features=512, out_features=512, bias=True)\n              (q_proj): Linear(in_features=512, out_features=512, bias=True)\n              (out_proj): Linear(in_features=512, out_features=512, bias=True)\n            )\n            (self_attn_layer_norm): LayerNorm((512,), eps=1e-05, elementwise_affine=True)\n            (dropout_module): FairseqDropout()\n            (activation_dropout_module): FairseqDropout()\n            (fc1): Linear(in_features=512, out_features=2048, bias=True)\n            (fc2): Linear(in_features=2048, out_features=512, bias=True)\n            (final_layer_norm): LayerNorm((512,), eps=1e-05, elementwise_affine=True)\n          )\n        )\n      )\n      (decoder): TransformerDecoderBase(\n        (dropout_module): FairseqDropout()\n        (embed_tokens): Embedding(50348, 512, padding_idx=1)\n        (embed_positions): SinusoidalPositionalEmbedding()\n        (layers): ModuleList(\n          (0): TransformerDecoderLayerBase(\n            (dropout_module): FairseqDropout()\n            (self_attn): MultiheadAttention(\n              (dropout_module): FairseqDropout()\n              (k_proj): Linear(in_features=512, out_features=512, bias=True)\n              (v_proj): Linear(in_features=512, out_features=512, bias=True)\n              (q_proj): Linear(in_features=512, out_features=512, bias=True)\n              (out_proj): Linear(in_features=512, out_features=512, bias=True)\n            )\n            (activation_dropout_module): FairseqDropout()\n            (self_attn_layer_norm): LayerNorm((512,), eps=1e-05, elementwise_affine=True)\n            (encoder_attn): MultiheadAttention(\n              (dropout_module): FairseqDropout()\n              (k_proj): Linear(in_features=512, out_features=512, bias=True)\n              (v_proj): Linear(in_features=512, out_features=512, bias=True)\n              (q_proj): Linear(in_features=512, out_features=512, bias=True)\n              (out_proj): Linear(in_features=512, out_features=512, bias=True)\n            )\n            (encoder_attn_layer_norm): LayerNorm((512,), eps=1e-05, elementwise_affine=True)\n            (fc1): Linear(in_features=512, out_features=2048, bias=True)\n            (fc2): Linear(in_features=2048, out_features=512, bias=True)\n            (final_layer_norm): LayerNorm((512,), eps=1e-05, elementwise_affine=True)\n          )\n          (1): TransformerDecoderLayerBase(\n            (dropout_module): FairseqDropout()\n            (self_attn): MultiheadAttention(\n              (dropout_module): FairseqDropout()\n              (k_proj): Linear(in_features=512, out_features=512, bias=True)\n              (v_proj): Linear(in_features=512, out_features=512, bias=True)\n              (q_proj): Linear(in_features=512, out_features=512, bias=True)\n              (out_proj): Linear(in_features=512, out_features=512, bias=True)\n            )\n            (activation_dropout_module): FairseqDropout()\n            (self_attn_layer_norm): LayerNorm((512,), eps=1e-05, elementwise_affine=True)\n            (encoder_attn): MultiheadAttention(\n              (dropout_module): FairseqDropout()\n              (k_proj): Linear(in_features=512, out_features=512, bias=True)\n              (v_proj): Linear(in_features=512, out_features=512, bias=True)\n              (q_proj): Linear(in_features=512, out_features=512, bias=True)\n              (out_proj): Linear(in_features=512, out_features=512, bias=True)\n            )\n            (encoder_attn_layer_norm): LayerNorm((512,), eps=1e-05, elementwise_affine=True)\n            (fc1): Linear(in_features=512, out_features=2048, bias=True)\n            (fc2): Linear(in_features=2048, out_features=512, bias=True)\n            (final_layer_norm): LayerNorm((512,), eps=1e-05, elementwise_affine=True)\n          )\n          (2): TransformerDecoderLayerBase(\n            (dropout_module): FairseqDropout()\n            (self_attn): MultiheadAttention(\n              (dropout_module): FairseqDropout()\n              (k_proj): Linear(in_features=512, out_features=512, bias=True)\n              (v_proj): Linear(in_features=512, out_features=512, bias=True)\n              (q_proj): Linear(in_features=512, out_features=512, bias=True)\n              (out_proj): Linear(in_features=512, out_features=512, bias=True)\n            )\n            (activation_dropout_module): FairseqDropout()\n            (self_attn_layer_norm): LayerNorm((512,), eps=1e-05, elementwise_affine=True)\n            (encoder_attn): MultiheadAttention(\n              (dropout_module): FairseqDropout()\n              (k_proj): Linear(in_features=512, out_features=512, bias=True)\n              (v_proj): Linear(in_features=512, out_features=512, bias=True)\n              (q_proj): Linear(in_features=512, out_features=512, bias=True)\n              (out_proj): Linear(in_features=512, out_features=512, bias=True)\n            )\n            (encoder_attn_layer_norm): LayerNorm((512,), eps=1e-05, elementwise_affine=True)\n            (fc1): Linear(in_features=512, out_features=2048, bias=True)\n            (fc2): Linear(in_features=2048, out_features=512, bias=True)\n            (final_layer_norm): LayerNorm((512,), eps=1e-05, elementwise_affine=True)\n          )\n          (3): TransformerDecoderLayerBase(\n            (dropout_module): FairseqDropout()\n            (self_attn): MultiheadAttention(\n              (dropout_module): FairseqDropout()\n              (k_proj): Linear(in_features=512, out_features=512, bias=True)\n              (v_proj): Linear(in_features=512, out_features=512, bias=True)\n              (q_proj): Linear(in_features=512, out_features=512, bias=True)\n              (out_proj): Linear(in_features=512, out_features=512, bias=True)\n            )\n            (activation_dropout_module): FairseqDropout()\n            (self_attn_layer_norm): LayerNorm((512,), eps=1e-05, elementwise_affine=True)\n            (encoder_attn): MultiheadAttention(\n              (dropout_module): FairseqDropout()\n              (k_proj): Linear(in_features=512, out_features=512, bias=True)\n              (v_proj): Linear(in_features=512, out_features=512, bias=True)\n              (q_proj): Linear(in_features=512, out_features=512, bias=True)\n              (out_proj): Linear(in_features=512, out_features=512, bias=True)\n            )\n            (encoder_attn_layer_norm): LayerNorm((512,), eps=1e-05, elementwise_affine=True)\n            (fc1): Linear(in_features=512, out_features=2048, bias=True)\n            (fc2): Linear(in_features=2048, out_features=512, bias=True)\n            (final_layer_norm): LayerNorm((512,), eps=1e-05, elementwise_affine=True)\n          )\n          (4): TransformerDecoderLayerBase(\n            (dropout_module): FairseqDropout()\n            (self_attn): MultiheadAttention(\n              (dropout_module): FairseqDropout()\n              (k_proj): Linear(in_features=512, out_features=512, bias=True)\n              (v_proj): Linear(in_features=512, out_features=512, bias=True)\n              (q_proj): Linear(in_features=512, out_features=512, bias=True)\n              (out_proj): Linear(in_features=512, out_features=512, bias=True)\n            )\n            (activation_dropout_module): FairseqDropout()\n            (self_attn_layer_norm): LayerNorm((512,), eps=1e-05, elementwise_affine=True)\n            (encoder_attn): MultiheadAttention(\n              (dropout_module): FairseqDropout()\n              (k_proj): Linear(in_features=512, out_features=512, bias=True)\n              (v_proj): Linear(in_features=512, out_features=512, bias=True)\n              (q_proj): Linear(in_features=512, out_features=512, bias=True)\n              (out_proj): Linear(in_features=512, out_features=512, bias=True)\n            )\n            (encoder_attn_layer_norm): LayerNorm((512,), eps=1e-05, elementwise_affine=True)\n            (fc1): Linear(in_features=512, out_features=2048, bias=True)\n            (fc2): Linear(in_features=2048, out_features=512, bias=True)\n            (final_layer_norm): LayerNorm((512,), eps=1e-05, elementwise_affine=True)\n          )\n          (5): TransformerDecoderLayerBase(\n            (dropout_module): FairseqDropout()\n            (self_attn): MultiheadAttention(\n              (dropout_module): FairseqDropout()\n              (k_proj): Linear(in_features=512, out_features=512, bias=True)\n              (v_proj): Linear(in_features=512, out_features=512, bias=True)\n              (q_proj): Linear(in_features=512, out_features=512, bias=True)\n              (out_proj): Linear(in_features=512, out_features=512, bias=True)\n            )\n            (activation_dropout_module): FairseqDropout()\n            (self_attn_layer_norm): LayerNorm((512,), eps=1e-05, elementwise_affine=True)\n            (encoder_attn): MultiheadAttention(\n              (dropout_module): FairseqDropout()\n              (k_proj): Linear(in_features=512, out_features=512, bias=True)\n              (v_proj): Linear(in_features=512, out_features=512, bias=True)\n              (q_proj): Linear(in_features=512, out_features=512, bias=True)\n              (out_proj): Linear(in_features=512, out_features=512, bias=True)\n            )\n            (encoder_attn_layer_norm): LayerNorm((512,), eps=1e-05, elementwise_affine=True)\n            (fc1): Linear(in_features=512, out_features=2048, bias=True)\n            (fc2): Linear(in_features=2048, out_features=512, bias=True)\n            (final_layer_norm): LayerNorm((512,), eps=1e-05, elementwise_affine=True)\n          )\n        )\n        (output_projection): Linear(in_features=512, out_features=50348, bias=False)\n      )\n      (classification_heads): ModuleDict()\n    )\n  )\n)\n\n\n\nmodel.model = model.models[0]\n\n\nmodel.device\n\ndevice(type='cuda', index=0)\n\n\n\ndef joining_encode_tokens( arr_tokens, model ):\n    if len(arr_tokens) &gt; SET_METHOD_SIZE:\n        arr_tokens = arr_tokens[0:SET_METHOD_SIZE]\n    focal_code = \" \".join(arr_tokens)\n 
…
\ndevice = \"cuda:0\" if torch.cuda.is_available() else \"cpu\""
  },
  {
    "objectID": "gpt_global_rationalization.html#model-loading-and-testing",
    "href": "gpt_global_rationalization.html#model-loading-and-testing",
    "title": "Rationalization @ Global Granularity",
    "section": "Model Loading and Testing",
    "text": "Model Loading and Testing\n\nmodel = AutoModelForCausalLM.from_pretrained(\n            param_default()['model_name'],\n            cache_dir=param_default()['cache_dir'])\n\n\nmodel.to(device)\nmodel.eval()\n\nGPT2LMHeadModel(\n  (transformer): GPT2Model(\n    (wte): Embedding(32768, 768)\n    (wpe): Embedding(1024, 768)\n    (drop): Dropout(p=0.1, inplace=False)\n    (h): ModuleList(\n      (0): GPT2Block(\n        (ln_1): LayerNorm((768,), eps=1e-05, elementwise_affine=True)\n        (attn): GPT2Attention(\n          (c_attn): Conv1D()\n          (c_proj): Conv1D()\n          (attn_dropout): Dropout(p=0.1, inplace=False)\n          (resid_dropout): Dropout(p=0.1, inplace=False)\n        )\n        (ln_2): LayerNorm((768,), eps=1e-05, elementwise_affine=True)\n        (mlp): GPT2MLP(\n          (c_fc): Conv1D()\n          (c_proj): Conv1D()\n          (dropout): Dropout(p=0.1, inplace=False)\n        )\n      )\n      (1): GPT2Block(\n        (ln_1): LayerNorm((768,), eps=1e-05, elementwise_affine=True)\n        (attn): GPT2Attention(\n          (c_attn): Conv1D()\n          (c_proj): Conv1D()\n          (attn_dropout): Dropout(p=0.1, inplace=False)\n          (resid_dropout): Dropout(p=0.1, inplace=False)\n        )\n        (ln_2): LayerNorm((768,), eps=1e-05, elementwise_affine=True)\n        (mlp): GPT2MLP(\n          (c_fc): Conv1D()\n          (c_proj): Conv1D()\n          (dropout): Dropout(p=0.1, inplace=False)\n        )\n      )\n      (2): GPT2Block(\n        (ln_1): LayerNorm((768,), eps=1e-05, elementwise_affine=True)\n        (attn): GPT2Attention(\n          (c_attn): Conv1D()\n          (c_proj): Conv1D()\n          (attn_dropout): Dropout(p=0.1, inplace=False)\n          (resid_dropout): Dropout(p=0.1, inplace=False)\n        )\n        (ln_2): LayerNorm((768,), eps=1e-05, elementwise_affine=True)\n        (mlp): GPT2MLP(\n          (c_fc): Conv1D()\n          (c_proj): Conv1D()\n          (dropout): Dropout(p=0.1, inplace=False)\n        )\n      )\n      (3): GPT2Block(\n        (ln_1): LayerNorm((768,), eps=1e-05, elementwise_affine=True)\n        (attn): GPT2Attention(\n          (c_attn): Conv1D()\n          (c_proj): Conv1D()\n          (attn_dropout): Dropout(p=0.1, inplace=False)\n          (resid_dropout): Dropout(p=0.1, inplace=False)\n        )\n        (ln_2): LayerNorm((768,), eps=1e-05, elementwise_affine=True)\n        (mlp): GPT2MLP(\n          (c_fc): Conv1D()\n          (c_proj): Conv1D()\n          (dropout): Dropout(p=0.1, inplace=False)\n        )\n      )\n      (4): GPT2Block(\n        (ln_1): LayerNorm((768,), eps=1e-05, elementwise_affine=True)\n        (attn): GPT2Attention(\n          (c_attn): Conv1D()\n          (c_proj): Conv1D()\n          (attn_dropout): Dropout(p=0.1, inplace=False)\n          (resid_dropout): Dropout(p=0.1, inplace=False)\n        )\n        (ln_2): LayerNorm((768,), eps=1e-05, elementwise_affine=True)\n        (mlp): GPT2MLP(\n          (c_fc): Conv1D()\n          (c_proj): Conv1D()\n          (dropout): Dropout(p=0.1, inplace=False)\n        )\n      )\n      (5): GPT2Block(\n        (ln_1): LayerNorm((768,), eps=1e-05, elementwise_affine=True)\n        (attn): GPT2Attention(\n          (c_attn): Conv1D()\n          (c_proj): Conv1D()\n          (attn_dropout): Dropout(p=0.1, inplace=False)\n          (resid_dropout): Dropout(p=0.1, inplace=False)\n        )\n        (ln_2): LayerNorm((768,), eps=1e-05, elementwise_affine=True)\n        (mlp): GPT2MLP(\n          (c_fc): Conv1D()\n          (c_proj): Conv1D()\n          (dropout): Dropout(p=0.1, inplace=False)\n        )\n      )\n      (6): GPT2Block(\n        (ln_1): LayerNorm((768,), eps=1e-05, elementwise_affine=True)\n        (attn): GPT2Attention(\n          (c_attn): Conv1D()\n          (c_proj): Conv1D()\n          (attn_dropout): Dropout(p=0.1, inplace=False)\n          (resid_dropout): Dropout(p=0.1, inplace=False)\n        )\n        (ln_2): LayerNorm((768,), eps=1e-05, elementwise_affine=True)\n        (mlp): GPT2MLP(\n          (c_fc): Conv1D()\n          (c_proj): Conv1D()\n          (dropout): Dropout(p=0.1, inplace=False)\n        )\n      )\n      (7): GPT2Block(\n        (ln_1): LayerNorm((768,), eps=1e-05, elementwise_affine=True)\n        (attn): GPT2Attention(\n          (c_attn): Conv1D()\n          (c_proj): Conv1D()\n          (attn_dropout): Dropout(p=0.1, inplace=False)\n          (resid_dropout): Dropout(p=0.1, inplace=False)\n        )\n        (ln_2): LayerNorm((768,), eps=1e-05, elementwise_affine=True)\n        (mlp): GPT2MLP(\n          (c_fc): Conv1D()\n          (c_proj): Conv1D()\n          (dropout): Dropout(p=0.1, inplace=False)\n        )\n      )\n      (8): GPT2Block(\n        (ln_1): LayerNorm((768,), eps=1e-05, elementwise_affine=True)\n        (attn): GPT2Attention(\n          (c_attn): Conv1D()\n          (c_proj): Conv1D()\n          (attn_dropout): Dropout(p=0.1, inplace=False)\n          (resid_dropout): Dropout(p=0.1, inplace=False)\n        )\n        (ln_2): LayerNorm((768,), eps=1e-05, elementwise_affine=True)\n        (mlp): GPT2MLP(\n          (c_fc): Conv1D()\n          (c_proj): Conv1D()\n          (dropout): Dropout(p=0.1, inplace=False)\n        )\n      )\n      (9): GPT2Block(\n        (ln_1): LayerNorm((768,), eps=1e-05, elementwise_affine=True)\n        (attn): GPT2Attention(\n          (c_attn): Conv1D()\n          (c_proj): Conv1D()\n          (attn_dropout): Dropout(p=0.1, inplace=False)\n          (resid_dropout): Dropout(p=0.1, inplace=False)\n        )\n        (ln_2): LayerNorm((768,), eps=1e-05, elementwise_affine=True)\n        (mlp): GPT2MLP(\n          (c_fc): Conv1D()\n          (c_proj): Conv1D()\n          (dropout): Dropout(p=0.1, inplace=False)\n        )\n      )\n      (10): GPT2Block(\n        (ln_1): LayerNorm((768,), eps=1e-05, elementwise_affine=True)\n        (attn): GPT2Attention(\n          (c_attn): Conv1D()\n          (c_proj): Conv1D()\n          (attn_dropout): Dropout(p=0.1, inplace=False)\n          (resid_dropout): Dropout(p=0.1, inplace=False)\n        )\n        (ln_2): LayerNorm((768,), eps=1e-05, elementwise_affine=True)\n        (mlp): GPT2MLP(\n          (c_fc): Conv1D()\n          (c_proj): Conv1D()\n          (dropout): Dropout(p=0.1, inplace=False)\n        )\n      )\n      (11): GPT2Block(\n        (ln_1): LayerNorm((768,), eps=1e-05, elementwise_affine=True)\n        (attn): GPT2Attention(\n          (c_attn): Conv1D()\n          (c_proj): Conv1D()\n          (attn_dropout): Dropout(p=0.1, inplace=False)\n          (resid_dropout): Dropout(p=0.1, inplace=False)\n        )\n        (ln_2): LayerNorm((768,), eps=1e-05, elementwise_affine=True)\n        (mlp): GPT2MLP(\n          (c_fc): Conv1D()\n          (c_proj): Conv1D()\n          (dropout): Dropout(p=0.1, inplace=False)\n        )\n      )\n    )\n    (ln_f): LayerNorm((768,), eps=1e-05, elementwise_affine=True)\n  )\n  (lm_head): Linear(in_features=768, out_features=32768, bias=False)\n)"
  },
  {
    "objectID": "gpt_global_rationalization.html#tokenizer-loading-and-testing",
    "href": "gpt_global_rationalization.html#tokenizer-loading-and-testing",
    "title": "Rationalization @ Global Granularity",
    "section": "Tokenizer Loading and Testing",
    "text": "Tokenizer Loading and Testing\n\ntokenizer = AutoTokenizer.from_pretrained(param_default()['model_name'])"
…
n \"pong\"\\n\nGenerate Pyhton code that Check if the grid cl...\n\n\nfreq\n1\n1\n1"
  },
  {
    "objectID": "gpt_sampling_.html#model-loading-and-testing",
    "href": "gpt_sampling_.html#model-loading-and-testing",
    "title": "Decoder Based Transformer (GPT-2) Sampling",
    "section": "Model Loading and Testing",
    "text": "Model Loading and Testing\n\nmodel = AutoModelForCausalLM.from_pretrained(\n            param_default()['model_name'],\n            cache_dir=param_default()['cache_dir'])\n\n\nmodel.to(device)\nmodel.eval()\n\nGPT2LMHeadModel(\n  (transformer): GPT2Model(\n    (wte): Embedding(32768, 768)\n    (wpe): Embedding(1024, 768)\n    (drop): Dropout(p=0.1, inplace=False)\n    (h): ModuleList(\n      (0): GPT2Block(\n        (ln_1): LayerNorm((768,), eps=1e-05, elementwise_affine=True)\n        (attn): GPT2Attention(\n          (c_attn): Conv1D()\n          (c_proj): Conv1D()\n          (attn_dropout): Dropout(p=0.1, inplace=False)\n          (resid_dropout): Dropout(p=0.1, inplace=False)\n        )\n        (ln_2): LayerNorm((768,), eps=1e-05, elementwise_affine=True)\n        (mlp): GPT2MLP(\n          (c_fc): Conv1D()\n          (c_proj): Conv1D()\n          (dropout): Dropout(p=0.1, inplace=False)\n        )\n      )\n      (1): GPT2Block(\n        (ln_1): LayerNorm((768,), eps=1e-05, elementwise_affine=True)\n        (attn): GPT2Attention(\n          (c_attn): Conv1D()\n          (c_proj): Conv1D()\n          (attn_dropout): Dropout(p=0.1, inplace=False)\n          (resid_dropout): Dropout(p=0.1, inplace=False)\n        )\n        (ln_2): LayerNorm((768,), eps=1e-05, elementwise_affine=True)\n        (mlp): GPT2MLP(\n          (c_fc): Conv1D()\n          (c_proj): Conv1D()\n          (dropout): Dropout(p=0.1, inplace=False)\n        )\n      )\n      (2): GPT2Block(\n        (ln_1): LayerNorm((768,), eps=1e-05, elementwise_affine=True)\n        (attn): GPT2Attention(\n          (c_attn): Conv1D()\n          (c_proj): Conv1D()\n          (attn_dropout): Dropout(p=0.1, inplace=False)\n          (resid_dropout): Dropout(p=0.1, inplace=False)\n        )\n        (ln_2): LayerNorm((768,), eps=1e-05, elementwise_affine=True)\n        (mlp): GPT2MLP(\n          (c_fc): Conv1D()\n          (c_proj): Conv1D()\n          (dropout): Dropout(p=0.1, inplace=False)\n        )\n      )\n      (3): GPT2Block(\n        (ln_1): LayerNorm((768,), eps=1e-05, elementwise_affine=True)\n        (attn): GPT2Attention(\n          (c_attn): Conv1D()\n          (c_proj): Conv1D()\n          (attn_dropout): Dropout(p=0.1, inplace=False)\n          (resid_dropout): Dropout(p=0.1, inplace=False)\n        )\n        (ln_2): LayerNorm((768,), eps=1e-05, elementwise_affine=True)\n        (mlp): GPT2MLP(\n          (c_fc): Conv1D()\n          (c_proj): Conv1D()\n          (dropout): Dropout(p=0.1, inplace=False)\n        )\n      )\n      (4): GPT2Block(\n        (ln_1): LayerNorm((768,), eps=1e-05, elementwise_affine=True)\n        (attn): GPT2Attention(\n          (c_attn): Conv1D()\n          (c_proj): Conv1D()\n          (attn_dropout): Dropout(p=0.1, inplace=False)\n          (resid_dropout): Dropout(p=0.1, inplace=False)\n        )\n        (ln_2): LayerNorm((768,), eps=1e-05, elementwise_affine=True)\n        (mlp): GPT2MLP(\n          (c_fc): Conv1D()\n          (c_proj): Conv1D()\n          (dropout): Dropout(p=0.1, inplace=False)\n        )\n      )\n      (5): GPT2Block(\n        (ln_1): LayerNorm((768,), eps=1e-05, elementwise_affine=True)\n        (attn): GPT2Attention(\n          (c_attn): Conv1D()\n          (c_proj): Conv1D()\n          (attn_dropout): Dropout(p=0.1, inplace=False)\n          (resid_dropout): Dropout(p=0.1, inplace=False)\n        )\n        (ln_2): LayerNorm((768,), eps=1e-05, elementwise_affine=True)\n        (mlp): GPT2MLP(\n          (c_fc): Conv1D()\n          (c_proj): Conv1D()\n          (dropout): Dropout(p=0.1, inplace=False)\n        )\n      )\n      (6): GPT2Block(\n        (ln_1): LayerNorm((768,), eps=1e-05, elementwise_affine=True)\n        (attn): GPT2Attention(\n          (c_attn): Conv1D()\n          (c_proj): Conv1D()\n          (attn_dropout): Dropout(p=0.1, inplace=False)\n          (resid_dropout): Dropout(p=0.1, inplace=False)\n        )\n        (ln_2): LayerNorm((768,), eps=1e-05, elementwise_affine=True)\n        (mlp): GPT2MLP(\n          (c_fc): Conv1D()\n          (c_proj): Conv1D()\n          (dropout): Dropout(p=0.1, inplace=False)\n        )\n      )\n      (7): GPT2Block(\n        (ln_1): LayerNorm((768,), eps=1e-05, elementwise_affine=True)\n        (attn): GPT2Attention(\n          (c_attn): Conv1D()\n          (c_proj): Conv1D()\n          (attn_dropout): Dropout(p=0.1, inplace=False)\n          (resid_dropout): Dropout(p=0.1, inplace=False)\n        )\n        (ln_2): LayerNorm((768,), eps=1e-05, elementwise_affine=True)\n        (mlp): GPT2MLP(\n          (c_fc): Conv1D()\n          (c_proj): Conv1D()\n          (dropout): Dropout(p=0.1, inplace=False)\n        )\n      )\n      (8): GPT2Block(\n        (ln_1): LayerNorm((768,), eps=1e-05, elementwise_affine=True)\n        (attn): GPT2Attention(\n          (c_attn): Conv1D()\n          (c_proj): Conv1D()\n          (attn_dropout): Dropout(p=0.1, inplace=False)\n          (resid_dropout): Dropout(p=0.1, inplace=False)\n        )\n        (ln_2): LayerNorm((768,), eps=1e-05, elementwise_affine=True)\n        (mlp): GPT2MLP(\n          (c_fc): Conv1D()\n          (c_proj): Conv1D()\n          (dropout): Dropout(p=0.1, inplace=False)\n        )\n      )\n      (9): GPT2Block(\n        (ln_1): LayerNorm((768,), eps=1e-05, elementwise_affine=True)\n        (attn): GPT2Attention(\n          (c_attn): Conv1D()\n          (c_proj): Conv1D()\n          (attn_dropout): Dropout(p=0.1, inplace=False)\n          (resid_dropout): Dropout(p=0.1, inplace=False)\n        )\n        (ln_2): LayerNorm((768,), eps=1e-05, elementwise_affine=True)\n        (mlp): GPT2MLP(\n          (c_fc): Conv1D()\n          (c_proj): Conv1D()\n          (dropout): Dropout(p=0.1, inplace=False)\n        )\n      )\n      (10): GPT2Block(\n        (ln_1): LayerNorm((768,), eps=1e-05, elementwise_affine=True)\n        (attn): GPT2Attention(\n          (c_attn): Conv1D()\n          (c_proj): Conv1D()\n          (attn_dropout): Dropout(p=0.1, inplace=False)\n          (resid_dropout): Dropout(p=0.1, inplace=False)\n        )\n        (ln_2): LayerNorm((768,), eps=1e-05, elementwise_affine=True)\n        (mlp): GPT2MLP(\n          (c_fc): Conv1D()\n          (c_proj): Conv1D()\n          (dropout): Dropout(p=0.1, inplace=False)\n        )\n      )\n      (11): GPT2Block(\n        (ln_1): LayerNorm((768,), eps=1e-05, elementwise_affine=True)\n        (attn): GPT2Attention(\n          (c_attn): Conv1D()\n          (c_proj): Conv1D()\n          (attn_dropout): Dropout(p=0.1, inplace=False)\n          (resid_dropout): Dropout(p=0.1, inplace=False)\n        )\n        (ln_2): LayerNorm((768,), eps=1e-05, elementwise_affine=True)\n        (mlp): GPT2MLP(\n          (c_fc): Conv1D()\n          (c_proj): Conv1D()\n          (dropout): Dropout(p=0.1, inplace=False)\n        )\n      )\n    )\n    (ln_f): LayerNorm((768,), eps=1e-05, elementwise_affine=True)\n  )\n  (lm_head): Linear(in_features=768, out_features=32768, bias=False)\n)\n\n\n\nmodel.device\n\ndevice(type='cuda', index=0)"
  },
  {
    "objectID": "gpt_sampling_.html#tokenizer-loading-and-testing",
    "href": "gpt_sampling_.html#tokenizer-loading-and-testing",
    "title": "Decoder Based Transformer (GPT-2) Sampling",
    "section": "Tokenizer Loading and Testing",
    "text": "Tokenizer Loading and Testing\n\ntokenizer = AutoTokenizer.from_pretrained(param_default()['model_name'])"
…
